brain.pth (torch_old, 4072 bytes, 6 tensors)

l1.weight f4 [10, 27]
000000 d9 9a 70 3d 15 e8 00 3c 76 90 73 3f 1c 85 82 be
       0.058741424 0.007867833 0.95142305 -0.2549218
000010 08 9f 17 be a6 4e ce 3e 50 c7 ea 3e fb 01 be 3e
       -0.1480676 0.4029438 0.45855188 0.37110886
000020 f7 90 3b 3f b3 07 37 3f 39 e0 65 3f 0a 5c 20 3f
       0.73268074 0.71496123 0.8979526 0.6264044
000030 e3 8f c8 be fa 79 7a bf 3c 7e 17 bf e2 77 a8 3f
       -0.39172277 -0.9784237 -0.59176993 1.3161585
000040 e0 bf 63 3f ef 1f 16 bf a4 d2 34 3f 62 53 18 3f
       0.88964653 -0.58642477 0.7063391 0.5950223
000050 1c 85 8e be 12 f8 f5 3e 95 40 1f 3f a6 59 36 3f
       -0.2783593 0.48040825 0.6220792 0.7123054
000060 ee d4 72 bd dc 2b f9 3e c0 55 29 3f 0f e0 b4 3e
       -0.059285097 0.48666275 0.6614647 0.35327193
000070 6b 16 dc 3e ab a3 28 bf 2f 7b 87 3f 28 24 8c 3e
       0.42985854 -0.6587474 1.0584468 0.27371335
000080 c1 e9 4e 3f e7 10 1c bf 30 59 08 be 07 f2 17 3f
       0.8082543 -0.6096329 -0.13315272 0.5935368
000090 8a cf 2a be 77 5f 0f 3f b1 78 91 3f 43 24 6b 3f
       -0.16680732 0.5600504 1.1364957 0.91852206
0000a0 20 d7 74 3f a7 b5 e5 3e 54 fa 7a 3e 8d c2 03 bf
       0.95640755 0.44865152 0.24509555 -0.51468736
0000b0 ad 7b 09 bf 51 75 0d 3f d6 40 3f 3c c9 91 89 3f
       -0.5370434 0.55257136 0.011673173 1.0747615
0000c0 a0 a0 78 3f 60 13 16 3f 5a e6 88 3e 45 12 70 3f
       0.97120094 0.58623314 0.26738244 0.9377788
0000d0 b6 6f 10 3f 88 c5 3a 3c 34 d0 68 bd 18 12 8a bc
       0.5642046 0.011399634 -0.056839183 -0.01685433
0000e0 f5 d0 0a 3e 60 de 07 3d f4 6e 2c 3d a9 ba 29 3e
       0.13556273 0.033171058 0.042098 0.16575111
0000f0 57 52 28 be bc b4 4e 3d 78 61 f9 3c d7 b2 e9 bd
       -0.1643766 0.05046533 0.030441985 -0.11411064
000100 50 a4 87 bc a7 95 1c be dc 0d 3a be 78 2b 1c 3d
       -0.016557842 -0.15291463 -0.1816935 0.038127393
000110 c0 b5 57 3d d0 cb 38 3d 9c 60 52 bd 00 bf 46 3d
       0.052663565 0.045116246 -0.051361665 0.048521996
000120 ac 89 1d be ad 8c 33 3e 2e a6 2d be 0d dc 3a be
       -0.15384549 0.17534132 -0.16957924 -0.18248005
000130 0c c3 57 3d 45 cc 18 be 80 13 28 bc a4 53 20 3d
       0.052676246 -0.14921673 -0.010258555 0.039142266
000140 38 25 3d bd 21 ff b2 bd 1b 47 cd 3d 84 02 73 3d
       -0.046178073 -0.08740068 0.10023328 0.05932857
000150 ce 7b e2 3d c0 8d e0 bc 42 a5 12 be 49 81 d9 3d
       0.1105877 -0.027411342 -0.14320853 0.10620362
000160 dc 6f bd bd c0 a0 4d bb 40 5d af bd fe da a5 3d
       -0.09249851 -0.0031376332 -0.08562708 0.0809841
000170 fa 06 a2 3d 41 68 f9 bd 07 17 1e be f0 e1 c7 bc
       0.07911487 -0.12178088 -0.15438472 -0.024399728
000180 0c c6 04 3d 54 b3 20 3d c0 16 1b bb 94 d6 13 3d
       0.032415435 0.03923352 -0.0023664683 0.03609331
000190 34 4a a7 3d 7d 32 fb bd 5e ad 26 be fd e5 c4 bd
       0.0816845 -0.12265489 -0.16277072 -0.09614179
0001a0 77 98 22 be 69 e8 37 3e 78 67 35 be d4 86 d7 3d
       -0.15878473 0.17959751 -0.17715251 0.10523763
0001b0 4f 54 d3 bb 35 54 cb bd 3e a7 c9 3e 43 71 80 3e
       -0.0064492594 -0.099281706 0.39385408 0.25086412
0001c0 74 3c a9 3f 37 d8 b7 be 00 4b da 3e 3a 49 87 3f
       1.3221574 -0.35907146 0.42635345 1.0569222
0001d0 5d 88 83 3e 7c f5 30 3f 28 16 98 3e 11 b9 d3 be
       0.25689974 0.6912458 0.29704404 -0.41352132
0001e0 f4 a8 47 bf 8b 55 6b 3f 95 13 d3 bd 00 82 2e 3e
       -0.77992177 0.91927403 -0.10306469 0.17041779
0001f0 28 ce 2c 3f 30 39 42 be 04 6c 67 3e a4 ab 08 3f
       0.6750207 -0.18967128 0.22599798 0.533869
000200 73 6e 88 3e 90 44 68 3f 0f 30 8f 3e f0 5a 16 3f
       0.26646766 0.9072962 0.27966353 0.5873251
000210 b9 d9 47 3e 97 42 11 3f 11 26 05 3f a1 fa 0e bf
       0.19516648 0.56742233 0.5201121 -0.5585118
000220 c8 a4 1c bf ef 92 d6 3e ab f6 ad be 5b 51 2a 3f
       -0.61188936 0.41908976 -0.33977255 0.6653039
000230 3f b8 9c be df 61 36 3f 39 6d aa 3f 54 4c bc bc
       -0.3060932 0.7124309 1.3314582 -0.022985615
000240 33 dc c9 3d 18 25 9e be 65 aa 8e be 44 86 18 bf
       0.09856453 -0.30887675 -0.27864376 -0.59579873
000250 81 35 25 bf 7c 83 4f 3f 04 c3 ac bd 0d 21 1f 3f
       -0.64534765 0.81060004 -0.08435634 0.62159806
000260 1c 89 01 3f c9 d0 a1 bd 8d 9a 90 3e 07 03 51 be
       0.5059984 -0.07901151 0.28242913 -0.20411311
000270 ae 41 41 3d ea 0a 70 be f4 60 42 3f 85 23 63 bd
       0.047181778 -0.23441663 0.7592919 -0.055453796
000280 c4 2b 2d 3f d3 1f 43 3e ed be 82 3e e4 ff 95 3d
       0.67644906 0.19055109 0.2553629 0.07324198
000290 85 96 5b 3f af 2b 61 be b5 73 09 be a4 53 d2 bb
       0.8577655 -0.2198932 -0.13423045 -0.006418662
0002a0 f4 46 58 be d6 d3 0c be 67 f1 d8 bc 83 7c b4 bd
       -0.21120816 -0.13752684 -0.026482297 -0.08812811
0002b0 8b 61 57 3e dc ca 4e be 90 e2 d8 3e a9 e7 00 bf
       0.21033303 -0.20194572 0.42360353 -0.50353485
0002c0 5c f5 2b bf ad 86 ff 3e 2a 0c 77 3f 37 41 6e 3f
       -0.67171264 0.49907437 0.96502936 0.9306826
0002d0 dd 63 22 3e 72 30 da 3d dd 3c 68 be ae 6b 2c be
       0.15858407 0.106537715 -0.22679467 -0.16837952
0002e0 af 6c 60 3e d7 00 03 3f 51 f0 66 be 74 f0 e0 3e
       0.2191646 0.51173156 -0.22552611 0.4393345
0002f0 9a e6 42 3d bc fa 10 3f 4a 3d 54 3f bc 2e 38 3f
       0.0475832 0.5663259 0.8290602 0.7194631
000300 f9 cd f7 3c 64 b4 5c bf f3 b5 b8 be a5 47 44 bf
       0.030249583 -0.86212754 -0.36076316 -0.7667182
000310 0f 93 12 bf 35 b0 8f be ab 6b dc 3e 84 0b 2d be
       -0.57255644 -0.28064123 0.43050894 -0.16898924
000320 0c 5d 00 bf 40 92 81 3f 8f dd d4 be d8 a9 a7 bd
       -0.5014198 1.0122757 -0.41575286 -0.08186692
000330 76 e1 76 3f 03 a4 40 3f e8 4e 24 3f 8a 9d 09 bd
       0.96437776 0.7525026 0.641829 -0.033597507
000340 2e 9f 2f 3f 77 c3 c7 bc 27 aa 87 be 39 58 e9 bd
       0.68602264 -0.024385197 -0.26497003 -0.1139378
000350 1d 89 c8 bd a7 28 44 be cb 9e 02 be 9a 14 eb 3e
       -0.09791777 -0.19156133 -0.12755887 0.45914155
000360 24 22 05 3f 30 d5 11 3f e7 ab e2 be 8b af 12 3f
       0.5200522 0.56965923 -0.44271776 0.5729911
000370 f8 d2 10 bf cf d4 d0 be 37 a9 d6 3e 3c f1 c4 be
       -0.5657191 -0.4078736 0.41925976 -0.38465297
000380 b2 54 d5 3e 67 99 ea 3e 37 62 ae 3e b3 2a 96 be
       0.4166618 0.45820162 0.34059307 -0.29329452
000390 48 7a 85 3f d0 9f a4 be af 1a 4d 3f 8e 03 21 3e
       1.0427942 -0.32153177 0.8011884 0.15724012
0003a0 ef ed b4 be d9 c6 72 3d bc 61 b4 3e be cc 39 3f
       -0.3533778 0.059271667 0.35230815 0.72578037
0003b0 64 5c 27 3f 4e e1 cc be f3 05 9a 3e c4 53 a6 bd
       0.6537535 -0.40015644 0.30082664 -0.08121446
0003c0 30 00 53 3f b4 54 4f 3d 1a 42 25 3f 09 d2 18 3f
       0.8242216 0.05061789 0.6455399 0.5969549
0003d0 7d 9b 12 3f 5a ce bd 3e ad e8 34 be 35 1f 13 3f
       0.57268506 0.37071496 -0.17666884 0.57469493
0003e0 0a dd 02 bf 73 e4 60 3f 7b 77 a2 be b0 7f cd 3e
       -0.5111853 0.87848586 -0.3173178 0.4013648
0003f0 65 93 5c 3f 05 6e 28 3f 86 11 90 be 23 53 4b bf
       0.86162406 0.65792876 -0.2813837 -0.7942373

l1.bias f4 [10]
000000 f9 51 17 3f d9 27 96 3f 10 1e 06 be 93 62 69 be
       0.59109455 1.173091 -0.13097405 -0.2279151
000010 f8 41 47 3f 34 14 19 3f 53 f6 2b 3f c4 b3 5c 3f
       0.77835035 0.5979645 0.67172736 0.862118
000020 df d1 4b 3f 90 e9 4a 3f
       0.7961711 0.7926264

l2.weight f4 [10, 10]
000000 21 8a 86 bf c7 e3 5b 3f de 29 b5 bd b0 bf 06 bd
       -1.0510904 0.85894436 -0.08845876 -0.03289765
000010 ec cd 94 3e 75 79 9e bf af b6 b2 bf 1e 43 8a 3f
       0.29063356 -1.2380816 -1.3962001 1.0801733
000020 e4 84 4d 3f 6f 1c 03 3f 89 a1 38 3f 0f f0 18 bf
       0.802809 0.5121526 0.72121483 -0.597413
000030 e4 aa f0 bd 6a be 6c 3e 09 63 9c 3f 2d d5 d2 3f
       -0.11751345 0.23119512 1.2217723 1.6471306
000040 ca 09 9a 3f cf bf 44 3f b9 b5 f9 3c b3 84 b8 3f
       1.2034237 0.76855177 0.03048216 1.4415497
000050 f8 33 3b bd d6 e7 90 be 10 5a 33 3d a0 12 33 3c
       -0.045703858 -0.28301877 0.043787062 0.0109297335
000060 33 5d 26 be 30 36 c9 bc 4c 3a 93 3d 9b 7c 97 be
       -0.1624649 -0.024561971 0.071888536 -0.29587254
000070 fc 3f 4c be b4 21 fb 3d db 6b 99 3f b9 41 75 bd
       -0.19946283 0.12262288 1.198604 -0.05987713
000080 4f a8 9a be b7 f1 23 3e 39 4d 88 be c2 68 7d bf
       -0.30206534 0.16010176 -0.26621416 -0.9898797
000090 a5 8d 0a 3f 5d fd 81 3f 92 41 63 3f c9 43 64 3f
       0.5412238 1.0155445 0.8877193 0.8916593
0000a0 52 8a 9c be c9 0c 8a 3f b0 b4 95 3d 78 ed 82 be
       -0.3057428 1.0785152 0.07309854 -0.255718
0000b0 a8 43 8b bf 5b 87 8e be d0 53 f7 3e 82 8d 87 3f
       -1.0880022 -0.27837643 0.4830613 1.059006
0000c0 55 e4 8a 3f 33 0d 02 bf d6 d3 88 bd 38 4e 0f 3d
       1.0850931 -0.5080139 -0.066810295 0.034986705
0000d0 90 f1 6e 3d 9e 77 79 3e 2c 86 b4 3d ae d1 e1 bd
       0.05833584 0.24362037 0.08814654 -0.11026321
0000e0 82 d6 c6 bd 1d e4 05 be 08 d8 06 bd 04 8c 7e be
       -0.09708883 -0.130753 -0.032920867 -0.24858099
0000f0 38 19 4e bd 80 3c 06 bd 58 0b a4 3d a3 33 9b be
       -0.05031702 -0.03277254 0.08009976 -0.30312833
000100 9e 5d 55 be 2a f9 ea bd d0 53 1d 3e 7e e4 66 be
       -0.20836493 -0.114733055 0.15364003 -0.225481
000110 40 7c 21 bd 4c d8 0f 3e eb 48 b4 3b d7 eb 2f 3f
       -0.039425135 0.14047354 0.0055018566 0.6871924
000120 8a 29 f1 bd a5 bc 78 be a7 17 74 3f a2 ee 13 3f
       -0.11775501 -0.24290712 0.9534859 0.57786
000130 5c b8 95 bf 42 75 57 bf 45 f8 12 3f 1a b3 98 3f
       -1.1696887 -0.84163296 0.5741008 1.1929657
000140 89 8f 91 3f 55 28 a5 3f 9a 4a 4f 3e 72 c5 8f 3e
       1.1371928 1.2902933 0.20243302 0.28080326
000150 3a d4 83 3f ed f0 e3 be 13 19 9d be 15 68 7e bf
       1.0299141 -0.4451975 -0.30683193 -0.99377567
000160 a1 c9 18 bf 49 ea 2c bf 99 f2 c3 3f da 8a d6 3d
       -0.5968266 -0.6754499 1.530841 0.104757026
000170 14 a1 dd 3d 12 cc 61 3e fa f4 57 3e 2b f1 28 3f
       0.10821739 0.22050503 0.21089545 0.65992993
000180 3b f7 d3 3e 5b ea 76 3e f6 05 15 be f0 c9 b8 bf
       0.4139956 0.24112837 -0.14553055 -1.4436626

l2.bias f4 [10]
000000 94 8c 2b 3d b3 d9 d4 3d 18 d1 06 3d d3 cd be be
       0.041882113 0.10393085 0.03291425 -0.37266406
000010 f5 8f 65 3f 45 40 4f be 94 28 92 be b9 3d b6 3e
       0.89672786 -0.2023936 -0.28546584 0.35593966
000020 db cb e8 3e 0e fd a5 be
       0.4546803 -0.32419628

l3.weight f4 [15, 10]
000000 26 a8 4f bf 30 b8 00 3f 60 38 22 be 51 59 8f 3e
       -0.8111595 0.5028105 -0.15841818 0.2799783
000010 c0 c0 bb bf 1c ee 27 3e c0 10 a8 3d df da 95 bf
       -1.4668198 0.16399425 0.0820632 -1.1707419
000020 9f 14 88 bf 68 05 cb 3e 21 94 ce 3d ab 49 4c bf
       -1.0631293 0.39652562 0.10086847 -0.7979991
000030 47 5a 81 3e 0a 32 05 3e 46 b6 66 3f 4b fa 98 be
       0.2526419 0.1300737 0.9012188 -0.29878458
000040 e0 a9 7e bd 18 e7 e8 be 6a ba 84 bf 38 4f 85 bf
       -0.062173724 -0.4548881 -1.0369389 -1.0414801
000050 95 27 99 bf f7 eb a1 be 47 a5 90 be 14 b4 62 3e
       -1.1965204 -0.3162534 -0.28251097 0.22139007
000060 ee 82 66 bf 1c 7e 3b 3e 59 cb 84 3e 78 3b 85 3e
       -0.9004353 0.18309826 0.25936392 0.26021934
000070 cf 70 e5 3e e0 44 ef bd da 83 59 bf f0 10 b2 bf
       0.4481263 -0.11683059 -0.84966815 -1.3911419
000080 b7 b6 9b 3e 50 83 e9 be 5d ef e7 3e 80 d1 8f 3c
       0.30412838 -0.45607996 0.45299807 0.017555952
000090 40 cb 10 3c 9c 4b 62 3d a2 9b 2b 3f b8 ab 95 3e
       0.008837521 0.055247888 0.6703435 0.29232574
0000a0 7f d2 41 bf fb d7 8a 3d 20 87 41 bc c7 a3 b9 3e
       -0.75711817 0.06779476 -0.0118120015 0.36257765
0000b0 bf c7 83 bf 64 cf 8e 3d a4 71 cb 3d 42 9b 0d 3f
       -1.0295333 0.0697315 0.099337846 0.5531503
0000c0 94 a3 80 bf d5 d6 77 bf 66 24 2b 3f e0 56 fa be
       -1.004992 -0.9681218 0.66852415 -0.48894405
0000d0 ce 2a 91 be 67 15 9b bf ea 06 63 bf 85 6b 58 be
       -0.2835297 -1.2115906 -0.88682425 -0.21134765
0000e0 ee 94 60 3e 23 b1 ae 3e 01 bc 1f 3f ef e1 5f bf
       0.21931812 0.3411952 0.62396246 -0.8745412
0000f0 80 a9 1b 3e 1f bc 30 bf 3c f6 c0 3d 49 d7 60 3d
       0.15201378 -0.6903705 0.094219655 0.054892812
000100 65 91 58 3f f8 c1 be 3d 1f c1 81 3e a7 d7 1c bf
       0.84596854 0.0931434 0.25342652 -0.6126656
000110 16 13 68 bf 2c 2a 30 bf f7 59 7d bf c7 df 35 3f
       -0.9065412 -0.6881435 -0.989654 0.7104458
000120 31 f0 2a be 98 56 d3 bf 82 4e 9c bf 28 3f 89 3d
       -0.16693188 -1.6510801 -1.2211459 0.06701499
000130 a1 3a 81 3e 4d 0d 3f 3e bd 18 c6 bf e6 a7 06 3f
       0.25240043 0.18657418 -1.54763 0.5259994
000140 29 18 0a 3f 21 ea c2 bf f9 f7 8b 3e e5 4f 1a bf
       0.53943115 -1.52277 0.27337626 -0.6027816
000150 a2 da e4 3e 8b 4f 09 be 25 c4 95 3e fe 1b a3 3e
       0.44698054 -0.1340925 0.2925121 0.31857294
000160 23 21 e5 3c c0 89 8d bf eb 77 d5 3e 1f 5b 5a be
       0.027969902 -1.1057663 0.41693053 -0.21323822
000170 e5 dd 53 be 8f 77 09 3f ef 90 c1 be 48 e4 94 be
       -0.20690115 0.53698057 -0.37805888 -0.29080415
000180 05 78 90 3e 58 8f 4b 3c 70 6b 53 bf 57 67 78 bf
       0.28216568 0.0124243125 -0.8258581 -0.97032684
000190 03 16 cd bf 4a 1c ee 3e 83 b7 97 3e a5 a4 b3 3e
       -1.6022342 0.46505958 0.29632196 0.3508655
0001a0 b5 61 da 3e 01 35 97 3e 29 1c 0d be bf b7 6d bf
       0.4265267 0.29532626 -0.13780273 -0.928585
0001b0 33 82 b2 bf c5 ad e0 bf 9a db 76 bf 20 e6 ce 3d
       -1.3945984 -1.755303 -0.96428835 0.101024866
0001c0 30 fc 1a be 45 21 7d bf 40 37 94 bf 4c 6a e3 3d
       -0.15135264 -0.9887889 -1.1579361 0.11104259
0001d0 c2 d1 63 3e ef 00 80 bd aa fb ab 3e dd 1c 12 3f
       0.22247985 -0.06250178 0.33590442 0.5707529
0001e0 c3 93 a1 bf 13 38 3a bd 10 a5 65 be 06 93 35 3e
       -1.2623218 -0.045463633 -0.22426248 0.17731866
0001f0 36 ff 30 3d 48 95 2f 3d 18 32 35 bd 54 c4 33 bf
       0.043212138 0.042866975 -0.044237226 -0.7022145
000200 f8 b5 d2 bd 23 73 f0 3e ae b0 86 3e 48 df 73 be
       -0.10288614 0.46962842 0.2630667 -0.23815644
000210 58 53 00 3e e4 e5 06 bf cc 9e a0 3e d0 b2 85 bd
       0.12531793 -0.52694535 0.31371152 -0.065282464
000220 af 08 80 3e 9e 34 3d 3f 2c e6 a3 bf 57 7e d9 bf
       0.25006625 0.7390841 -1.2804618 -1.6991681
000230 31 56 c6 bf 09 c0 c3 3e 8b 94 18 be aa 14 a8 bf
       -1.5495054 0.3823245 -0.14900415 -1.3131306
000240 85 dd 96 bf 66 72 5b be b5 3d 25 be 3a 01 2a 3f
       -1.1786352 -0.21430358 -0.1613682 0.6640812
000250 75 2f b9 3e 9f 70 cf bf
       0.3616902 -1.6206244

l3.bias f4 [15]
000000 ab 77 a2 be f8 d6 0c bc 8c 47 28 bf 91 11 31 3e
       -0.31731924 -0.008596174 -0.6573417 0.17291857
000010 ad 34 cd be 46 b9 06 3e f1 4a 36 3c 6c 27 fa 3d
       -0.4007925 0.13156614 0.011126266 0.122145504
000020 b8 20 6c bd 38 f8 24 bf d0 f6 fa 3e d7 27 e4 be
       -0.05764839 -0.6444125 0.49016428 -0.44561645
000030 8f 0f d2 3d b1 9d e6 3e 5e ab a0 3d
       0.10256874 0.45042184 0.07845186
